_________________________________________________________________\\
Training session #: 1
Model Architecture:
_________________________________________________________________
Layer (type)                 Output Shape              Param #   
=================================================================
lstm_1 (LSTM)                (None, 20, 80)            144320    
_________________________________________________________________
lstm_2 (LSTM)                (None, 20, 80)            51520     
_________________________________________________________________
activation_1 (Activation)    (None, 20, 80)            0         
_________________________________________________________________
dense_1 (Dense)              (None, 20, 80)            6480      
_________________________________________________________________
lstm_3 (LSTM)                (None, 2)                 664       
_________________________________________________________________
activation_2 (Activation)    (None, 2)                 0         
=================================================================
Total params: 202,984
Trainable params: 202,984
Non-trainable params: 0
_________________________________________________________________
val_loss: 0.007964646032398487
val_mean_absolute_error: 0.08703039868607211
val_mean_squared_error: 0.016153180892756698
val_logcosh: 0.007861135815640472
val_acc: 0.9202883625128734
loss: 0.00017304080740142307
…
