_________________________________________________________________\\
Training session #: 1
Model Architecture:
_________________________________________________________________
Layer (type)                 Output Shape              Param #   
=================================================================
cu_dnnlstm_1 (CuDNNLSTM)     (None, 40, 40)            65920     
_________________________________________________________________
cu_dnnlstm_2 (CuDNNLSTM)     (None, 40, 40)            13120     
_________________________________________________________________
activation_1 (Activation)    (None, 40, 40)            0         
_________________________________________________________________
dense_1 (Dense)              (None, 40, 40)            1640      
_________________________________________________________________
cu_dnnlstm_3 (CuDNNLSTM)     (None, 2)                 352       
_________________________________________________________________
activation_2 (Activation)    (None, 2)                 0         
=================================================================
Total params: 81,032
Trainable params: 81,032
Non-trainable params: 0
_________________________________________________________________
val_mean_absolute_error: 0.290938347578
val_logcosh: 0.0642714351416
mean_absolute_error: 0.283446117201
logcosh: 0.084649838236
val_mean_squared_error: 0.137071982026
acc: 0.718775837688
mean_squared_error: 0.19669348979
…
_______
Training Sets: ['D3-30MinuteStillRun-F2.csv', 'D1-30MinuteRun-F2.csv', 'D4-18MinuteRun-F2.csv']
Test Sets: ['D2-35MinuteRun-F2.csv']
_______
Saved to file: M4-CaRT-MAE:0.11-MSE:0.02-F2.h5py
_________________________________________________________________//
_________________________________________________________________\\
Training session #: 5
Model Architecture:
_________________________________________________________________
Layer (type)                 Output Shape              Param #   
=================================================================
cu_dnnlstm_1 (CuDNNLSTM)     (None, 70, 40)            65920     
_________________________________________________________________
cu_dnnlstm_2 (CuDNNLSTM)     (None, 70, 40)            13120     
_________________________________________________________________
activation_1 (Activation)    (None, 70, 40)            0         
_________________________________________________________________
dense_1 (Dense)              (None, 70, 40)            1640      
_________________________________________________________________
cu_dnnlstm_3 (CuDNNLSTM)     (None, 2)                 352       
_________________________________________________________________
activation_2 (Activation)    (None, 2)                 0         
=================================================================
Total params: 81,032
Trainable params: 81,032
Non-trainable params: 0
_________________________________________________________________
mean_absolute_error: 0.0240126026483
loss: 0.0265755782401
val_mean_squared_error: 0.0317680537701
logcosh: 0.0019337517652
val_acc: 0.892024517059
acc: 0.993327199809
mean_squared_error: 0.0039003662717
…
Validation Split: 0.2
_______
Training Sets: ['D3-30MinuteStillRun-F2.csv', 'D1-30MinuteRun-F2.csv', 'D4-18MinuteRun-F2.csv', 'D5-7MinuteRun-F2.csv']
Test Sets: ['D4-18MinuteRun-F2.csv']
_______
Saved to file: N/A
_________________________________________________________________//
_________________________________________________________________\\
Training session #: 6
Model Architecture:
_________________________________________________________________
Layer (type)                 Output Shape              Param #   
=================================================================
cu_dnnlstm_1 (CuDNNLSTM)     (None, 60, 40)            65920     
_________________________________________________________________
cu_dnnlstm_2 (CuDNNLSTM)     (None, 60, 40)            13120     
_________________________________________________________________
activation_1 (Activation)    (None, 60, 40)            0         
_________________________________________________________________
dense_1 (Dense)              (None, 60, 40)            1640      
_________________________________________________________________
cu_dnnlstm_3 (CuDNNLSTM)     (None, 2)                 352       
_________________________________________________________________
activation_2 (Activation)    (None, 2)                 0         
=================================================================
Total params: 81,032
Trainable params: 81,032
Non-trainable params: 0
_________________________________________________________________
val_acc: 0.873159527779
val_loss: 0.138920292258
mean_absolute_error: 0.0752595181634
loss: 0.0783689537753
val_logcosh: 0.0270241163671
val_mean_absolute_error: 0.135811716318
mean_squared_error: 0.0171736143464
…
Validation Split: 0.2
_______
Training Sets: ['D1-30MinuteRun-F2.csv', 'D3-30MinuteStillRun-F2.csv', 'D2-35MinuteRun-F2.csv', 'D5-7MinuteRun-F2.csv']
Test Sets: ['D4-18MinuteRun-F2.csv']
_______
Saved to file: N/A
_________________________________________________________________//
_________________________________________________________________\\
Training session #: 10
Model Architecture:
_________________________________________________________________
Layer (type)                 Output Shape              Param #   
=================================================================
cu_dnnlstm_4 (CuDNNLSTM)     (None, 30, 25)            39700     
_________________________________________________________________
cu_dnnlstm_5 (CuDNNLSTM)     (None, 30, 25)            5200      
_________________________________________________________________
activation_3 (Activation)    (None, 30, 25)            0         
_________________________________________________________________
dense_2 (Dense)              (None, 30, 25)            650       
_________________________________________________________________
cu_dnnlstm_6 (CuDNNLSTM)     (None, 2)                 232       
_________________________________________________________________
activation_4 (Activation)    (None, 2)                 0         
=================================================================
Total params: 45,782
Trainable params: 45,782
Non-trainable params: 0
_________________________________________________________________
val_loss: 0.0233916044235
loss: 0.00432632990589
mean_squared_error: 0.0039725747793
val_mean_squared_error: 0.0230381190777
mean_absolute_error: 0.0289009100747
val_mean_absolute_error: 0.0980204194784
…
Validation Split: 0.2
_______
Training Sets: ['D1-30MinuteRun-F2.csv', 'D3-30MinuteStillRun-F2.csv', 'D2-35MinuteRun-F2.csv', 'D4-18MinuteRun-F2.csv']
Test Sets: ['D5-7MinuteRun-F2.csv']
_______
Saved to file: N/A
_________________________________________________________________//
_________________________________________________________________\\
Training session #: 38
Model Architecture:
_________________________________________________________________
Layer (type)                 Output Shape              Param #   
=================================================================
cu_dnnlstm_15 (CuDNNLSTM)    (None, 1, 4)              6016      
_________________________________________________________________
activation_13 (Activation)   (None, 1, 4)              0         
_________________________________________________________________
dense_8 (Dense)              (None, 1, 20)             100       
_________________________________________________________________
cu_dnnlstm_16 (CuDNNLSTM)    (None, 2)                 192       
_________________________________________________________________
activation_14 (Activation)   (None, 2)                 0         
=================================================================
Total params: 6,308
Trainable params: 6,308
Non-trainable params: 0
_________________________________________________________________
mean_absolute_error: 0.164088963437
val_mean_squared_error: 0.0607309117913
mean_squared_error: 0.060039547904
val_mean_absolute_error: 0.177574545145
loss: 0.0616407663684
val_loss: 0.0623302534223
…
Training Sets: ['D1-30MinuteRun-F2.csv', 'D3-30MinuteStillRun-F2.csv', 'D2-35MinuteRun-F2.csv', 'D4-18MinuteRun-F2.csv']
Test Sets: ['D5-7MinuteRun-F2.csv']
_______
Saved to file: M38-CaRT-MAE:0.18-MSE:0.06-F2.h5py
_________________________________________________________________//
_________________________________________________________________\\
Training session #: 39
Model Architecture:
_________________________________________________________________
Layer (type)                 Output Shape              Param #   
=================================================================
cu_dnnlstm_1 (CuDNNLSTM)     (None, 1, 3)              4500      
_________________________________________________________________
activation_1 (Activation)    (None, 1, 3)              0         
_________________________________________________________________
dense_1 (Dense)              (None, 1, 200)            800       
_________________________________________________________________
cu_dnnlstm_2 (CuDNNLSTM)     (None, 2)                 1632      
_________________________________________________________________
activation_2 (Activation)    (None, 2)                 0         
=================================================================
Total params: 6,932
Trainable params: 6,932
Non-trainable params: 0
_________________________________________________________________
val_mean_absolute_error: 0.19964300096
loss: 0.0736084920353
val_loss: 0.0715245306492
mean_squared_error: 0.0727541976922
mean_absolute_error: 0.195416549775
val_mean_squared_error: 0.0706698521972
…
Validation Split: 0.2
_______
Training Sets: ['D1-30MinuteRun-F2.csv', 'D3-30MinuteStillRun-F2.csv', 'D2-35MinuteRun-F2.csv', 'D4-18MinuteRun-F2.csv']
Test Sets: ['D5-7MinuteRun-F2.csv']
_______
Saved to file: N/A
_________________________________________________________________//
_________________________________________________________________\\
Training session #: 40
Model Architecture:
_________________________________________________________________
Layer (type)                 Output Shape              Param #   
=================================================================
cu_dnnlstm_3 (CuDNNLSTM)     (None, 1, 2)              2992      
_________________________________________________________________
activation_3 (Activation)    (None, 1, 2)              0         
_________________________________________________________________
dense_2 (Dense)              (None, 1, 50)             150       
_________________________________________________________________
dense_3 (Dense)              (None, 1, 25)             1275      
_________________________________________________________________
dense_4 (Dense)              (None, 1, 50)             1300      
_________________________________________________________________
dense_5 (Dense)              (None, 1, 50)             2550      
_________________________________________________________________
cu_dnnlstm_4 (CuDNNLSTM)     (None, 2)                 432       
_________________________________________________________________
activation_4 (Activation)    (None, 2)                 0         
=================================================================
Total params: 8,699
Trainable params: 8,699
Non-trainable params: 0
_________________________________________________________________
val_mean_absolute_error: 0.185840830207
loss: 0.0904182259843
val_loss: 0.0682113841176
mean_squared_error: 0.0900339173918
mean_absolute_error: 0.204559226983
val_mean_squared_error: 0.0678251758218
…
Validation Split: 0.2
_______
Training Sets: ['D1-30MinuteRun-F2.csv', 'D3-30MinuteStillRun-F2.csv', 'D2-35MinuteRun-F2.csv', 'D4-18MinuteRun-F2.csv']
Test Sets: ['D5-7MinuteRun-F2.csv']
_______
Saved to file: N/A
_________________________________________________________________//
_________________________________________________________________\\
Training session #: 43
Model Architecture:
_________________________________________________________________
Layer (type)                 Output Shape              Param #   
=================================================================
cu_dnnlstm_11 (CuDNNLSTM)    (None, 30, 2)             2992      
_________________________________________________________________
activation_11 (Activation)   (None, 30, 2)             0         
_________________________________________________________________
dense_18 (Dense)             (None, 30, 50)            150       
_________________________________________________________________
dense_19 (Dense)             (None, 30, 25)            1275      
_________________________________________________________________
dense_20 (Dense)             (None, 30, 50)            1300      
_________________________________________________________________
dense_21 (Dense)             (None, 30, 50)            2550      
_________________________________________________________________
cu_dnnlstm_12 (CuDNNLSTM)    (None, 2)                 432       
_________________________________________________________________
activation_12 (Activation)   (None, 2)                 0         
=================================================================
Total params: 8,699
Trainable params: 8,699
Non-trainable params: 0
_________________________________________________________________
val_mean_absolute_error: 0.224381402135
loss: 0.0932111343541
val_loss: 0.0848157629371
mean_squared_error: 0.0920489819413
mean_absolute_error: 0.202331896704
val_mean_squared_error: 0.0836596861482
…
Training Sets: ['D1-30MinuteRun-F2.csv', 'D3-30MinuteStillRun-F2.csv', 'D2-35MinuteRun-F2.csv', 'D4-18MinuteRun-F2.csv']
Test Sets: ['D5-7MinuteRun-F2.csv']
_______
Saved to file: M43-CaRT-MAE:0.22-MSE:0.08-F2.h5py
_________________________________________________________________//
_________________________________________________________________\\
Training session #: 44
Model Architecture:
_________________________________________________________________
Layer (type)                 Output Shape              Param #   
=================================================================
cu_dnnlstm_1 (CuDNNLSTM)     (None, 30, 2)             2992      
_________________________________________________________________
dense_1 (Dense)              (None, 30, 50)            150       
_________________________________________________________________
dense_2 (Dense)              (None, 30, 25)            1275      
_________________________________________________________________
dense_3 (Dense)              (None, 30, 50)            1300      
_________________________________________________________________
dense_4 (Dense)              (None, 30, 50)            2550      
_________________________________________________________________
cu_dnnlstm_2 (CuDNNLSTM)     (None, 2)                 432       
_________________________________________________________________
activation_1 (Activation)    (None, 2)                 0         
=================================================================
Total params: 8,699
Trainable params: 8,699
Non-trainable params: 0
_________________________________________________________________
val_loss: 0.0633323341608
mean_squared_error: 0.0753020133351
val_mean_absolute_error: 0.19794946909
loss: 0.0760068489462
mean_absolute_error: 0.172697658248
val_mean_squared_error: 0.0626288875937
…
Validation Split: 0.2
_______
Training Sets: ['D1-30MinuteRun-F2.csv', 'D3-30MinuteStillRun-F2.csv', 'D2-35MinuteRun-F2.csv', 'D4-18MinuteRun-F2.csv']
Test Sets: ['D5-7MinuteRun-F2.csv']
_______
Saved to file: N/A
_________________________________________________________________//
_________________________________________________________________\\
Training session #: 45
Model Architecture:
_________________________________________________________________
Layer (type)                 Output Shape              Param #   
=================================================================
cu_dnnlstm_1 (CuDNNLSTM)     (None, 2, 1)              1492      
_________________________________________________________________
dense_1 (Dense)              (None, 2, 50)             100       
_________________________________________________________________
dense_2 (Dense)              (None, 2, 50)             2550      
_________________________________________________________________
dense_3 (Dense)              (None, 2, 50)             2550      
_________________________________________________________________
cu_dnnlstm_2 (CuDNNLSTM)     (None, 2)                 432       
=================================================================
Total params: 7,124
Trainable params: 7,124
Non-trainable params: 0
_________________________________________________________________
val_mean_squared_error: 0.106150142848
val_loss: 0.106150142848
mean_absolute_error: 0.227939907196
loss: 0.100024446387
val_mean_absolute_error: 0.24586160481
mean_squared_error: 0.100024446387
…
Batch size: 10000
Dropout: 0.2
Regularizer: 0.0
Recurrent Regularizer: 0.0
Epochs: 1000
Validation Split: 0.2
_______
Training Sets: ['D1-30MinuteRun-F2.csv', 'D3-30MinuteStillRun-F2.csv', 'D2-35MinuteRun-F2.csv', 'D4-18MinuteRun-F2.csv']
Test Sets: ['D5-7MinuteRun-F2.csv']
_________________________________________________________________\\
Training session #: 46
Model Architecture:
_________________________________________________________________
Layer (type)                 Output Shape              Param #   
=================================================================
cu_dnnlstm_3 (CuDNNLSTM)     (None, 2, 2)              2992      
_________________________________________________________________
activation_1 (Activation)    (None, 2, 2)              0         
_________________________________________________________________
dense_4 (Dense)              (None, 2, 50)             150       
_________________________________________________________________
dense_5 (Dense)              (None, 2, 50)             2550      
_________________________________________________________________
dense_6 (Dense)              (None, 2, 50)             2550      
_________________________________________________________________
cu_dnnlstm_4 (CuDNNLSTM)     (None, 2)                 432       
_________________________________________________________________
activation_2 (Activation)    (None, 2)                 0         
=================================================================
Total params: 8,674
Trainable params: 8,674
Non-trainable params: 0
_________________________________________________________________
val_mean_squared_error: 0.0512250214815
val_loss: 0.0512250214815
mean_absolute_error: 0.181493130253
loss: 0.0629956630494
val_mean_absolute_error: 0.173883005977
mean_squared_error: 0.0629956630494
…
Training Sets: ['D1-30MinuteRun-F2.csv', 'D3-30MinuteStillRun-F2.csv', 'D2-35MinuteRun-F2.csv', 'D4-18MinuteRun-F2.csv']
Test Sets: ['D5-7MinuteRun-F2.csv']
Finished Training: True
_______
Saved to file: N/A
_________________________________________________________________//
_________________________________________________________________\\
Training session #: 47
Model Architecture:
_________________________________________________________________
Layer (type)                 Output Shape              Param #   
=================================================================
cu_dnnlstm_5 (CuDNNLSTM)     (None, 2, 2)              2992      
_________________________________________________________________
activation_3 (Activation)    (None, 2, 2)              0         
_________________________________________________________________
dense_7 (Dense)              (None, 2, 50)             150       
_________________________________________________________________
dense_8 (Dense)              (None, 2, 50)             2550      
_________________________________________________________________
dense_9 (Dense)              (None, 2, 50)             2550      
_________________________________________________________________
cu_dnnlstm_6 (CuDNNLSTM)     (None, 2)                 432       
=================================================================
Total params: 8,674
Trainable params: 8,674
Non-trainable params: 0
_________________________________________________________________
val_mean_squared_error: 0.0502217449248
val_loss: 0.165891304612
mean_absolute_error: 0.171424418685
loss: 0.171424418685
val_mean_absolute_error: 0.165891304612
mean_squared_error: 0.111358940646
…
Training Sets: ['D1-30MinuteRun-F2.csv', 'D3-30MinuteStillRun-F2.csv', 'D2-35MinuteRun-F2.csv', 'D4-18MinuteRun-F2.csv']
Test Sets: ['D5-7MinuteRun-F2.csv']
Finished Training: True
_______
Saved to file: N/A
_________________________________________________________________//
_________________________________________________________________\\
Training session #: 48
Model Architecture:
_________________________________________________________________
Layer (type)                 Output Shape              Param #   
=================================================================
cu_dnnlstm_7 (CuDNNLSTM)     (None, 3, 2)              2992      
_________________________________________________________________
activation_4 (Activation)    (None, 3, 2)              0         
_________________________________________________________________
dense_10 (Dense)             (None, 3, 50)             150       
_________________________________________________________________
dense_11 (Dense)             (None, 3, 50)             2550      
_________________________________________________________________
dense_12 (Dense)             (None, 3, 50)             2550      
_________________________________________________________________
cu_dnnlstm_8 (CuDNNLSTM)     (None, 2)                 432       
=================================================================
Total params: 8,674
Trainable params: 8,674
Non-trainable params: 0
_________________________________________________________________
val_mean_squared_error: 0.121434725821
val_loss: 0.22832249105
mean_absolute_error: 0.232988518694
loss: 0.232988518694
val_mean_absolute_error: 0.22832249105
mean_squared_error: 0.247818936742
…
Training Sets: ['D1-30MinuteRun-F2.csv', 'D3-30MinuteStillRun-F2.csv', 'D2-35MinuteRun-F2.csv', 'D4-18MinuteRun-F2.csv']
Test Sets: ['D5-7MinuteRun-F2.csv']
Finished Training: True
_______
Saved to file: N/A
_________________________________________________________________//
_________________________________________________________________\\
Training session #: 49
Model Architecture:
_________________________________________________________________
Layer (type)                 Output Shape              Param #   
=================================================================
cu_dnnlstm_9 (CuDNNLSTM)     (None, 3, 2)              2992      
_________________________________________________________________
activation_5 (Activation)    (None, 3, 2)              0         
_________________________________________________________________
dense_13 (Dense)             (None, 3, 6)              18        
_________________________________________________________________
dense_14 (Dense)             (None, 3, 6)              42        
_________________________________________________________________
dense_15 (Dense)             (None, 3, 6)              42        
_________________________________________________________________
cu_dnnlstm_10 (CuDNNLSTM)    (None, 2)                 80        
=================================================================
Total params: 3,174
Trainable params: 3,174
Non-trainable params: 0
_________________________________________________________________
val_mean_squared_error: 0.0430162847042
val_loss: 0.149738699198
mean_absolute_error: 0.166205881223
loss: 0.166205881223
val_mean_absolute_error: 0.149738699198
mean_squared_error: 0.108729035176
…
Training Sets: ['D1-30MinuteRun-F2.csv', 'D3-30MinuteStillRun-F2.csv', 'D2-35MinuteRun-F2.csv', 'D4-18MinuteRun-F2.csv']
Test Sets: ['D5-7MinuteRun-F2.csv']
Finished Training: True
_______
Saved to file: N/A
_________________________________________________________________//
_________________________________________________________________\\
Training session #: 50
Model Architecture:
_________________________________________________________________
Layer (type)                 Output Shape              Param #   
=================================================================
cu_dnnlstm_11 (CuDNNLSTM)    (None, 40, 2)             2992      
_________________________________________________________________
activation_6 (Activation)    (None, 40, 2)             0         
_________________________________________________________________
dense_16 (Dense)             (None, 40, 6)             18        
_________________________________________________________________
dense_17 (Dense)             (None, 40, 6)             42        
_________________________________________________________________
dense_18 (Dense)             (None, 40, 6)             42        
_________________________________________________________________
cu_dnnlstm_12 (CuDNNLSTM)    (None, 2)                 80        
=================================================================
Total params: 3,174
Trainable params: 3,174
Non-trainable params: 0
_________________________________________________________________
val_mean_squared_error: 0.0612399578094
val_loss: 0.173306837678
mean_absolute_error: 0.137019595471
loss: 0.137019595471
val_mean_absolute_error: 0.173306837678
mean_squared_error: 0.0962267178156
…
Training Sets: ['D1-30MinuteRun-F2.csv', 'D3-30MinuteStillRun-F2.csv', 'D2-35MinuteRun-F2.csv', 'D4-18MinuteRun-F2.csv']
Test Sets: ['D5-7MinuteRun-F2.csv']
Finished Training: True
_______
Saved to file: N/A
_________________________________________________________________//
_________________________________________________________________\\
Training session #: 51
Model Architecture:
_________________________________________________________________
Layer (type)                 Output Shape              Param #   
=================================================================
cu_dnnlstm_1 (CuDNNLSTM)     (None, 40, 4)             6016      
_________________________________________________________________
activation_1 (Activation)    (None, 40, 4)             0         
_________________________________________________________________
dense_1 (Dense)              (None, 40, 22)            110       
_________________________________________________________________
dense_2 (Dense)              (None, 40, 22)            506       
_________________________________________________________________
dense_3 (Dense)              (None, 40, 22)            506       
_________________________________________________________________
cu_dnnlstm_2 (CuDNNLSTM)     (None, 2)                 208       
=================================================================
Total params: 7,346
Trainable params: 7,346
Non-trainable params: 0
_________________________________________________________________
val_mean_squared_error: 0.584427073344
val_loss: 0.469334157624
mean_squared_error: 0.00399495201327
val_mean_absolute_error: 0.467746747205
loss: 0.0416913819808
mean_absolute_error: 0.0401056551574
…
Training Sets: ['D1-30MinuteRun-F2.csv', 'D3-30MinuteStillRun-F2.csv', 'D2-35MinuteRun-F2.csv', 'D4-18MinuteRun-F2.csv', 'D6-27MinuteRun-F2.csv', 'D7-60MinuteRun-F2.csv']
Test Sets: ['D5-7MinuteRun-F2.csv']
Finished Training: True
_______
Saved to file: N/A
_________________________________________________________________//
_________________________________________________________________\\
Training session #: 52
Model Architecture:
_________________________________________________________________
Layer (type)                 Output Shape              Param #   
=================================================================
cu_dnnlstm_4 (CuDNNLSTM)     (None, 20, 12)            18432     
_________________________________________________________________
activation_2 (Activation)    (None, 20, 12)            0         
_________________________________________________________________
cu_dnnlstm_5 (CuDNNLSTM)     (None, 20, 5)             380       
_________________________________________________________________
dense_4 (Dense)              (None, 20, 22)            132       
_________________________________________________________________
dense_5 (Dense)              (None, 20, 22)            506       
_________________________________________________________________
dense_6 (Dense)              (None, 20, 22)            506       
_________________________________________________________________
cu_dnnlstm_6 (CuDNNLSTM)     (None, 20, 2)             208       
=================================================================
Total params: 20,164
Trainable params: 20,164
Non-trainable params: 0
_________________________________________________________________
_________________________________________________________________\\
Training session #: 53
Model Architecture:
_________________________________________________________________
Layer (type)                 Output Shape              Param #   
=================================================================
cu_dnnlstm_1 (CuDNNLSTM)     (None, 6, 12)             18432     
_________________________________________________________________
activation_1 (Activation)    (None, 6, 12)             0         
_________________________________________________________________
cu_dnnlstm_2 (CuDNNLSTM)     (None, 6, 5)              380       
_________________________________________________________________
dense_1 (Dense)              (None, 6, 22)             132       
_________________________________________________________________
dense_2 (Dense)              (None, 6, 22)             506       
_________________________________________________________________
dense_3 (Dense)              (None, 6, 22)             506       
_________________________________________________________________
cu_dnnlstm_3 (CuDNNLSTM)     (None, 6, 2)              208       
=================================================================
Total params: 20,164
Trainable params: 20,164
Non-trainable params: 0
_________________________________________________________________
val_mean_squared_error: 1.34823655295
mean_absolute_error: 0.0288062318194
val_loss: 1.34823655295
loss: 0.00224842771751
val_mean_absolute_error: 0.888721949866
mean_squared_error: 0.00224842775971
…
Training Sets: ['D1-30MinuteRun-F2.csv', 'D3-30MinuteStillRun-F2.csv', 'D2-35MinuteRun-F2.csv', 'D4-18MinuteRun-F2.csv', 'D7-60MinuteRun-F2.csv', 'D6-27MinuteRun-F2.csv']
Test Sets: ['D5-7MinuteRun-F2.csv']
Finished Training: True
_______
Saved to file: M53-CaRT-MAE:0.89-MSE:1.35-F2.h5py
_________________________________________________________________//
_________________________________________________________________\\
Training session #: 54
Model Architecture:
_________________________________________________________________
Layer (type)                 Output Shape              Param #   
=================================================================
cu_dnnlstm_4 (CuDNNLSTM)     (None, 6, 12)             18432     
_________________________________________________________________
activation_2 (Activation)    (None, 6, 12)             0         
_________________________________________________________________
cu_dnnlstm_5 (CuDNNLSTM)     (None, 6, 5)              380       
_________________________________________________________________
dense_4 (Dense)              (None, 6, 22)             132       
_________________________________________________________________
dense_5 (Dense)              (None, 6, 22)             506       
_________________________________________________________________
dense_6 (Dense)              (None, 6, 22)             506       
_________________________________________________________________
cu_dnnlstm_6 (CuDNNLSTM)     (None, 6, 2)              208       
=================================================================
Total params: 20,164
Trainable params: 20,164
Non-trainable params: 0
_________________________________________________________________
val_mean_squared_error: 0.0284279660946
mean_absolute_error: 0.119323908801
val_loss: 0.0284279693765
loss: 0.034439291025
val_mean_absolute_error: 0.115198611845
mean_squared_error: 0.0344392915575
…
Training Sets: ['D1-30MinuteRun-F2.csv', 'D3-30MinuteStillRun-F2.csv', 'D2-35MinuteRun-F2.csv', 'D4-18MinuteRun-F2.csv', 'D7-60MinuteRun-F2.csv']
Test Sets: ['D5-7MinuteRun-F2.csv']
Finished Training: True
_______
Saved to file: N/A
_________________________________________________________________//
_________________________________________________________________\\
Training session #: 55
Model Architecture:
_________________________________________________________________
Layer (type)                 Output Shape              Param #   
=================================================================
cu_dnnlstm_7 (CuDNNLSTM)     (None, 6, 6)              9072      
_________________________________________________________________
activation_3 (Activation)    (None, 6, 6)              0         
_________________________________________________________________
dense_7 (Dense)              (None, 6, 22)             154       
_________________________________________________________________
dense_8 (Dense)              (None, 6, 22)             506       
_________________________________________________________________
dense_9 (Dense)              (None, 6, 22)             506       
_________________________________________________________________
cu_dnnlstm_8 (CuDNNLSTM)     (None, 6, 2)              208       
=================================================================
Total params: 10,446
Trainable params: 10,446
Non-trainable params: 0
_________________________________________________________________
val_mean_squared_error: 0.0353655812825
mean_absolute_error: 0.148655087977
val_loss: 0.0353655812825
loss: 0.0485831600662
val_mean_absolute_error: 0.134958544893
mean_squared_error: 0.0485831600662
…
Training Sets: ['D1-30MinuteRun-F2.csv', 'D3-30MinuteStillRun-F2.csv', 'D2-35MinuteRun-F2.csv', 'D4-18MinuteRun-F2.csv', 'D7-60MinuteRun-F2.csv']
Test Sets: ['D5-7MinuteRun-F2.csv']
Finished Training: True
_______
Saved to file: M56-CaRT-MAE:0.14-MSE:0.04-F2.h5py
_________________________________________________________________//
_________________________________________________________________\\
Training session #: 57
Model Architecture:
_________________________________________________________________
Layer (type)                 Output Shape              Param #   
=================================================================
cu_dnnlstm_11 (CuDNNLSTM)    (None, 12, 6)             9072      
_________________________________________________________________
activation_5 (Activation)    (None, 12, 6)             0         
_________________________________________________________________
dense_13 (Dense)             (None, 12, 22)            154       
_________________________________________________________________
dense_14 (Dense)             (None, 12, 22)            506       
_________________________________________________________________
dense_15 (Dense)             (None, 12, 22)            506       
_________________________________________________________________
cu_dnnlstm_12 (CuDNNLSTM)    (None, 12, 2)             208       
=================================================================
Total params: 10,446
Trainable params: 10,446
Non-trainable params: 0
_________________________________________________________________
val_mean_squared_error: 0.0434564972005
mean_absolute_error: 0.110764132035
val_loss: 0.043456500039
loss: 0.0247437313218
val_mean_absolute_error: 0.146882779803
mean_squared_error: 0.0247437305236
…
Training Sets: ['D1-30MinuteRun-F2.csv', 'D3-30MinuteStillRun-F2.csv', 'D2-35MinuteRun-F2.csv', 'D4-18MinuteRun-F2.csv', 'D7-60MinuteRun-F2.csv']
Test Sets: ['D5-7MinuteRun-F2.csv']
Finished Training: True
_______
Saved to file: N/A
_________________________________________________________________//
_________________________________________________________________\\
Training session #: 58
Model Architecture:
_________________________________________________________________
Layer (type)                 Output Shape              Param #   
=================================================================
cu_dnnlstm_13 (CuDNNLSTM)    (None, 8, 4)              6016      
_________________________________________________________________
activation_6 (Activation)    (None, 8, 4)              0         
_________________________________________________________________
dense_16 (Dense)             (None, 8, 22)             110       
_________________________________________________________________
dense_17 (Dense)             (None, 8, 22)             506       
_________________________________________________________________
dense_18 (Dense)             (None, 8, 22)             506       
_________________________________________________________________
cu_dnnlstm_14 (CuDNNLSTM)    (None, 8, 2)              208       
=================================================================
Total params: 7,346
Trainable params: 7,346
Non-trainable params: 0
_________________________________________________________________
val_mean_squared_error: 0.0457046558011
mean_absolute_error: 0.132490981778
val_loss: 0.0481073498994
loss: 0.0362340985266
val_mean_absolute_error: 0.154610914688
mean_squared_error: 0.0338346421825
…
Training Sets: ['D1-30MinuteRun-F2.csv', 'D3-30MinuteStillRun-F2.csv', 'D2-35MinuteRun-F2.csv', 'D4-18MinuteRun-F2.csv', 'D7-60MinuteRun-F2.csv']
Test Sets: ['D5-7MinuteRun-F2.csv']
Finished Training: True
_______
Saved to file: N/A
_________________________________________________________________//
_________________________________________________________________\\
Training session #: 59
Model Architecture:
_________________________________________________________________
Layer (type)                 Output Shape              Param #   
=================================================================
cu_dnnlstm_17 (CuDNNLSTM)    (None, 8, 5)              7540      
_________________________________________________________________
activation_8 (Activation)    (None, 8, 5)              0         
_________________________________________________________________
dense_22 (Dense)             (None, 8, 22)             132       
_________________________________________________________________
dense_23 (Dense)             (None, 8, 22)             506       
_________________________________________________________________
dense_24 (Dense)             (None, 8, 22)             506       
_________________________________________________________________
dense_25 (Dense)             (None, 8, 2)              46        
=================================================================
Total params: 8,730
Trainable params: 8,730
Non-trainable params: 0
_________________________________________________________________
val_mean_squared_error: 0.0434278485134
mean_absolute_error: 0.136557680201
val_loss: 0.0457682286158
loss: 0.0406977464228
val_mean_absolute_error: 0.149002255449
mean_squared_error: 0.038356180571
…
Training Sets: ['D1-30MinuteRun-F2.csv', 'D3-30MinuteStillRun-F2.csv', 'D2-35MinuteRun-F2.csv', 'D4-18MinuteRun-F2.csv', 'D7-60MinuteRun-F2.csv']
Test Sets: ['D5-7MinuteRun-F2.csv']
Finished Training: False
_______
Saved to file: N/A
_________________________________________________________________//
_________________________________________________________________\\
Training session #: 62
Model Architecture:
_________________________________________________________________
Layer (type)                 Output Shape              Param #   
=================================================================
cu_dnnlstm_20 (CuDNNLSTM)    (None, 9, 5)              7540      
_________________________________________________________________
dense_34 (Dense)             (None, 9, 20)             120       
_________________________________________________________________
dense_35 (Dense)             (None, 9, 20)             420       
_________________________________________________________________
dense_36 (Dense)             (None, 9, 20)             420       
_________________________________________________________________
dense_37 (Dense)             (None, 9, 2)              42        
=================================================================
Total params: 8,542
Trainable params: 8,542
Non-trainable params: 0
_________________________________________________________________
val_mean_squared_error: 0.0395165891158
mean_absolute_error: 0.124458685438
val_loss: 0.0208942702432
loss: 0.0183859359324
val_mean_absolute_error: 0.13861580763
mean_squared_error: 0.0342776860902
…
Training Sets: ['D1-30MinuteRun-F2.csv', 'D3-30MinuteStillRun-F2.csv', 'D2-35MinuteRun-F2.csv', 'D4-18MinuteRun-F2.csv', 'D7-60MinuteRun-F2.csv']
Test Sets: ['D5-7MinuteRun-F2.csv']
Finished Training: True
_______
Saved to file: M63-CaRT-MAE:0.16-MSE:0.05-F2.h5py
_________________________________________________________________//
_________________________________________________________________\\
Training session #: 64
Model Architecture:
_________________________________________________________________
Layer (type)                 Output Shape              Param #   
=================================================================
cu_dnnlstm_1 (CuDNNLSTM)     (None, 8, 5)              7540      
_________________________________________________________________
dense_1 (Dense)              (None, 8, 20)             120       
_________________________________________________________________
dense_2 (Dense)              (None, 8, 20)             420       
_________________________________________________________________
dense_3 (Dense)              (None, 8, 40)             840       
_________________________________________________________________
dense_4 (Dense)              (None, 8, 2)              82        
=================================================================
Total params: 9,002
Trainable params: 9,002
Non-trainable params: 0
_________________________________________________________________
val_mean_absolute_error: 0.138810909933
loss: 0.0314438360471
val_mean_squared_error: 0.040042730381
mean_absolute_error: 0.115672078205
val_loss: 0.042289854848
mean_squared_error: 0.0292006374411
…
Training Sets: ['D1-30MinuteRun-F2.csv', 'D3-30MinuteStillRun-F2.csv', 'D2-35MinuteRun-F2.csv', 'D4-18MinuteRun-F2.csv', 'D7-60MinuteRun-F2.csv']
Test Sets: ['D5-7MinuteRun-F2.csv']
Finished Training: True
_______
Saved to file: M64-CaRT-MAE:0.14-MSE:0.04-F2.h5py
_________________________________________________________________//
_________________________________________________________________\\
Training session #: 65
Model Architecture:
_________________________________________________________________
Layer (type)                 Output Shape              Param #   
=================================================================
cu_dnnlstm_2 (CuDNNLSTM)     (None, 8, 4)              6016      
_________________________________________________________________
activation_1 (Activation)    (None, 8, 4)              0         
_________________________________________________________________
dense_5 (Dense)              (None, 8, 20)             100       
_________________________________________________________________
dense_6 (Dense)              (None, 8, 20)             420       
_________________________________________________________________
dense_7 (Dense)              (None, 8, 2)              42        
=================================================================
Total params: 6,578
Trainable params: 6,578
Non-trainable params: 0
_________________________________________________________________
val_mean_absolute_error: 0.166726577172
loss: 0.039957165768
val_mean_squared_error: 0.058099351074
mean_absolute_error: 0.137181090436
val_loss: 0.060524032544
mean_squared_error: 0.0375352549511
…
Training Sets: ['D1-30MinuteRun-F2.csv', 'D3-30MinuteStillRun-F2.csv', 'D2-35MinuteRun-F2.csv', 'D4-18MinuteRun-F2.csv', 'D7-60MinuteRun-F2.csv']
Test Sets: ['D5-7MinuteRun-F2.csv']
Finished Training: True
_______
Saved to file: N/A
_________________________________________________________________//
_________________________________________________________________\\
Training session #: 66
Model Architecture:
_________________________________________________________________
Layer (type)                 Output Shape              Param #   
=================================================================
cu_dnnlstm_1 (CuDNNLSTM)     (None, 30, 6)             9072      
_________________________________________________________________
activation_1 (Activation)    (None, 30, 6)             0         
_________________________________________________________________
cu_dnnlstm_2 (CuDNNLSTM)     (None, 30, 6)             336       
_________________________________________________________________
cu_dnnlstm_3 (CuDNNLSTM)     (None, 30, 20)            2240      
_________________________________________________________________
activation_2 (Activation)    (None, 30, 20)            0         
_________________________________________________________________
dense_1 (Dense)              (None, 30, 20)            420       
_________________________________________________________________
dense_2 (Dense)              (None, 30, 20)            420       
_________________________________________________________________
dense_3 (Dense)              (None, 30, 2)             42        
=================================================================
Total params: 12,530
Trainable params: 12,530
Non-trainable params: 0
_________________________________________________________________
mean_absolute_error: 0.0457153842796
mean_squared_error: 0.0057187175054
val_mean_absolute_error: 0.109113554104
loss: 0.00571871761625
val_mean_squared_error: 0.0296418108713
val_loss: 0.0296418139315
…
Training Sets: ['D1-30MinuteRun-F2.csv', 'D3-30MinuteStillRun-F2.csv', 'D2-35MinuteRun-F2.csv', 'D4-18MinuteRun-F2.csv', 'D7-60MinuteRun-F2.csv']
Test Sets: ['D5-7MinuteRun-F2.csv']
Finished Training: True
_______
Saved to file: N/A
_________________________________________________________________//
_________________________________________________________________\\
Training session #: 67
Model Architecture:
_________________________________________________________________
Layer (type)                 Output Shape              Param #   
=================================================================
cu_dnnlstm_1 (CuDNNLSTM)     (None, 3, 6)              9072      
_________________________________________________________________
activation_1 (Activation)    (None, 3, 6)              0         
_________________________________________________________________
cu_dnnlstm_2 (CuDNNLSTM)     (None, 3, 6)              336       
_________________________________________________________________
cu_dnnlstm_3 (CuDNNLSTM)     (None, 3, 20)             2240      
_________________________________________________________________
activation_2 (Activation)    (None, 3, 20)             0         
_________________________________________________________________
dense_1 (Dense)              (None, 3, 20)             420       
_________________________________________________________________
dense_2 (Dense)              (None, 3, 20)             420       
_________________________________________________________________
dense_3 (Dense)              (None, 3, 2)              42        
=================================================================
Total params: 12,530
Trainable params: 12,530
Non-trainable params: 0
_________________________________________________________________
loss: 0.0200297647556
mean_absolute_error: 0.0933440490227
val_mean_absolute_error: 0.105198349585
mean_squared_error: 0.0200297625668
val_mean_squared_error: 0.0211389143253
val_loss: 0.0211389130206
…
Training Sets: ['D8-60MinuteRun-F2.csv', 'D7-60MinuteRun-F2.csv', 'D1-30MinuteRun-F2.csv', 'D3-30MinuteStillRun-F2.csv', 'D2-35MinuteRun-F2.csv', 'D4-18MinuteRun-F2.csv']
Test Sets: ['D5-7MinuteRun-F2.csv']
Finished Training: True
_______
Saved to file: N/A
_________________________________________________________________//
_________________________________________________________________\\
Training session #: 68
Model Architecture:
_________________________________________________________________
Layer (type)                 Output Shape              Param #   
=================================================================
cu_dnnlstm_1 (CuDNNLSTM)     (None, 15, 3)             4500      
_________________________________________________________________
activation_1 (Activation)    (None, 15, 3)             0         
_________________________________________________________________
cu_dnnlstm_2 (CuDNNLSTM)     (None, 15, 3)             96        
_________________________________________________________________
cu_dnnlstm_3 (CuDNNLSTM)     (None, 15, 22)            2376      
_________________________________________________________________
activation_2 (Activation)    (None, 15, 22)            0         
_________________________________________________________________
dense_1 (Dense)              (None, 15, 22)            506       
_________________________________________________________________
dense_2 (Dense)              (None, 15, 22)            506       
_________________________________________________________________
cu_dnnlstm_4 (CuDNNLSTM)     (None, 2)                 208       
_________________________________________________________________
activation_3 (Activation)    (None, 2)                 0         
=================================================================
Total params: 8,192
Trainable params: 8,192
Non-trainable params: 0
_________________________________________________________________
mean_absolute_error: 0.12248665946
mean_squared_error: 0.0257185480763
val_loss: 0.0475393557983
val_mean_squared_error: 0.0475393557983
val_mean_absolute_error: 0.163932319732
loss: 0.0257185480763
…
Training Sets: ['D8-60MinuteRun-F2.csv', 'D7-60MinuteRun-F2.csv', 'D1-30MinuteRun-F2.csv', 'D2-35MinuteRun-F2.csv', 'D4-18MinuteRun-F2.csv']
Test Sets: ['D5-7MinuteRun-F2.csv']
Finished Training: True
_______
Saved to file: N/A
_________________________________________________________________//
_________________________________________________________________\\
Training session #: 69
Model Architecture:
_________________________________________________________________
Layer (type)                 Output Shape              Param #   
=================================================================
cu_dnnlstm_5 (CuDNNLSTM)     (None, 15, 3)             4500      
_________________________________________________________________
activation_4 (Activation)    (None, 15, 3)             0         
_________________________________________________________________
dense_3 (Dense)              (None, 15, 22)            88        
_________________________________________________________________
dense_4 (Dense)              (None, 15, 22)            506       
_________________________________________________________________
cu_dnnlstm_6 (CuDNNLSTM)     (None, 2)                 208       
_________________________________________________________________
activation_5 (Activation)    (None, 2)                 0         
=================================================================
Total params: 5,302
Trainable params: 5,302
Non-trainable params: 0
_________________________________________________________________
mean_absolute_error: 0.107673646426
mean_squared_error: 0.0199872988909
val_loss: 0.0635093046296
val_mean_squared_error: 0.0635093046296
val_mean_absolute_error: 0.175251224358
loss: 0.0199872988909
…
Training Sets: ['D8-60MinuteRun-F2.csv', 'D7-60MinuteRun-F2.csv', 'D1-30MinuteRun-F2.csv', 'D2-35MinuteRun-F2.csv', 'D4-18MinuteRun-F2.csv']
Test Sets: ['D5-7MinuteRun-F2.csv']
Finished Training: True
_______
Saved to file: N/A
_________________________________________________________________//
_________________________________________________________________\\
Training session #: 70
Model Architecture:
_________________________________________________________________
Layer (type)                 Output Shape              Param #   
=================================================================
cu_dnnlstm_7 (CuDNNLSTM)     (None, 6, 4)              6016      
_________________________________________________________________
activation_6 (Activation)    (None, 6, 4)              0         
_________________________________________________________________
dense_5 (Dense)              (None, 6, 22)             110       
_________________________________________________________________
dense_6 (Dense)              (None, 6, 22)             506       
_________________________________________________________________
cu_dnnlstm_8 (CuDNNLSTM)     (None, 6, 2)              208       
_________________________________________________________________
activation_7 (Activation)    (None, 6, 2)              0         
=================================================================
Total params: 6,840
Trainable params: 6,840
Non-trainable params: 0
_________________________________________________________________
mean_absolute_error: 0.20126622298
mean_squared_error: 0.0942004887967
val_loss: 0.0524222774094
val_mean_squared_error: 0.0524222785254
val_mean_absolute_error: 0.156652053897
loss: 0.0942004891742
…
Training Sets: ['D8-60MinuteRun-F2.csv', 'D7-60MinuteRun-F2.csv', 'D1-30MinuteRun-F2.csv', 'D3-30MinuteStillRun-F2.csv', 'D2-35MinuteRun-F2.csv', 'D4-18MinuteRun-F2.csv']
Test Sets: ['D5-7MinuteRun-F2.csv']
Finished Training: True
_______
Saved to file: N/A
_________________________________________________________________//
_________________________________________________________________\\
Training session #: 71
Model Architecture:
_________________________________________________________________
Layer (type)                 Output Shape              Param #   
=================================================================
cu_dnnlstm_9 (CuDNNLSTM)     (None, 6, 5)              7540      
_________________________________________________________________
activation_8 (Activation)    (None, 6, 5)              0         
_________________________________________________________________
dense_7 (Dense)              (None, 6, 23)             138       
_________________________________________________________________
dense_8 (Dense)              (None, 6, 23)             552       
_________________________________________________________________
cu_dnnlstm_10 (CuDNNLSTM)    (None, 6, 2)              216       
=================================================================
Total params: 8,446
Trainable params: 8,446
Non-trainable params: 0
_________________________________________________________________
mean_absolute_error: 0.147602881836
mean_squared_error: 0.0614063217126
val_loss: 0.0557702849396
val_mean_squared_error: 0.0539491186659
val_mean_absolute_error: 0.157178984137
loss: 0.063228419518
…
Training Sets: ['D8-60MinuteRun-F2.csv', 'D7-60MinuteRun-F2.csv', 'D1-30MinuteRun-F2.csv', 'D3-30MinuteStillRun-F2.csv', 'D2-35MinuteRun-F2.csv', 'D4-18MinuteRun-F2.csv']
Test Sets: ['D5-7MinuteRun-F2.csv']
Finished Training: True
_______
Saved to file: N/A
_________________________________________________________________//
_________________________________________________________________\\
Training session #: 82
Model Architecture:
_________________________________________________________________
Layer (type)                 Output Shape              Param #   
=================================================================
cu_dnnlstm_1 (CuDNNLSTM)     (None, 27, 6)             9072      
_________________________________________________________________
dense_1 (Dense)              (None, 27, 45)            315       
_________________________________________________________________
cu_dnnlstm_2 (CuDNNLSTM)     (None, 27, 2)             392       
=================================================================
Total params: 9,779
Trainable params: 9,779
Non-trainable params: 0
_________________________________________________________________
_________________________________________________________________\\
Training session #: 83
Model Architecture:
_________________________________________________________________
Layer (type)                 Output Shape              Param #   
=================================================================
cu_dnnlstm_1 (CuDNNLSTM)     (None, 27, 20)            31360     
_________________________________________________________________
dense_1 (Dense)              (None, 27, 45)            945       
_________________________________________________________________
cu_dnnlstm_2 (CuDNNLSTM)     (None, 27, 2)             392       
=================================================================
Total params: 32,697
Trainable params: 32,697
Non-trainable params: 0
_________________________________________________________________
val_loss: 0.021925646748
val_mean_absolute_error: 0.0682286279272
mean_squared_error: 0.00193088349424
mean_absolute_error: 0.0258723053188
loss: 0.00193093432859
val_mean_squared_error: 0.0219255871433
…
Training Sets: ['D8-60MinuteRun-F2.csv', 'D7-60MinuteRun-F2.csv', 'D1-30MinuteRun-F2.csv', 'D3-30MinuteStillRun-F2.csv', 'D2-35MinuteRun-F2.csv', 'D4-18MinuteRun-F2.csv', 'D9-60-MinuteRun-F2.csv', 'D10-30MinuteRun-F2.csv', 'D11-30MinuteRun-F2.csv', 'D12-25MinuteRun-F2.csv']
Test Sets: ['D5-7MinuteRun-F2.csv']
Finished Training: True
_______
Saved to file: M90-CaRT-MAE:0.021-MSE:0.005-F2.h5py
_________________________________________________________________//
_________________________________________________________________\\
Training session #: 91
Model Architecture:
_________________________________________________________________
Layer (type)                 Output Shape              Param #   
=================================================================
cu_dnnlstm_1 (CuDNNLSTM)     (None, 22, 23)            36340     
_________________________________________________________________
dense_1 (Dense)              (None, 22, 45)            1080      
_________________________________________________________________
cu_dnnlstm_2 (CuDNNLSTM)     (None, 22, 2)             392       
=================================================================
Total params: 37,812
Trainable params: 37,812
Non-trainable params: 0
_________________________________________________________________
mean_absolute_error: 0.0432207686752
val_mean_squared_error: 0.0153875461195
mean_squared_error: 0.0162344029329
val_mean_absolute_error: 0.0620254420393
loss: 0.0162394285567
val_loss: 0.0153925924652
_______
_______
_________________________________________________________________\\
Training session #: 92
Model Architecture:
_________________________________________________________________
Layer (type)                 Output Shape              Param #   
=================================================================
cu_dnnlstm_1 (CuDNNLSTM)     (None, 18, 23)            36340     
_________________________________________________________________
dense_1 (Dense)              (None, 18, 45)            1080      
_________________________________________________________________
cu_dnnlstm_2 (CuDNNLSTM)     (None, 18, 2)             392       
=================================================================
Total params: 37,812
Trainable params: 37,812
Non-trainable params: 0
_________________________________________________________________
val_mean_squared_error: 0.0119170141568
mean_absolute_error: 0.0172480027574
val_loss: 0.0119173112944
mean_squared_error: 0.000718550888486
loss: 0.00071883815233
val_mean_absolute_error: 0.0433492289694
…
Training Sets: ['D8-60MinuteRun-F2.csv', 'D7-60MinuteRun-F2.csv', 'D1-30MinuteRun-F2.csv', 'D3-30MinuteStillRun-F2.csv', 'D2-35MinuteRun-F2.csv', 'D4-18MinuteRun-F2.csv', 'D9-60-MinuteRun-F2.csv', 'D10-30MinuteRun-F2.csv', 'D11-30MinuteRun-F2.csv', 'D12-25MinuteRun-F2.csv']
Test Sets: ['D5-7MinuteRun-F2.csv']
Finished Training: True
_______
Saved to file: M92-CaRT-MAE:0.043-MSE:0.012-F2.h5py
_________________________________________________________________//
_________________________________________________________________\\
Training session #: 93
Model Architecture:
_________________________________________________________________
Layer (type)                 Output Shape              Param #   
=================================================================
cu_dnnlstm_5 (CuDNNLSTM)     (None, 5, 100)            188800    
_________________________________________________________________
dense_3 (Dense)              (None, 5, 100)            10100     
_________________________________________________________________
cu_dnnlstm_6 (CuDNNLSTM)     (None, 5, 2)              832       
=================================================================
Total params: 199,732
Trainable params: 199,732
Non-trainable params: 0
_________________________________________________________________
_________________________________________________________________\\
Training session #: 94
Model Architecture:
_________________________________________________________________
Layer (type)                 Output Shape              Param #   
=================================================================
cu_dnnlstm_7 (CuDNNLSTM)     (None, 5, 5)              7540      
_________________________________________________________________
dense_4 (Dense)              (None, 5, 100)            600       
_________________________________________________________________
cu_dnnlstm_8 (CuDNNLSTM)     (None, 5, 2)              832       
=================================================================
Total params: 8,972
Trainable params: 8,972
Non-trainable params: 0
_________________________________________________________________
val_loss: 0.109011366167
val_mean_absolute_error: 0.108718324548
mean_squared_error: 0.037321259586
loss: 0.0930653198973
mean_absolute_error: 0.0927718125464
val_mean_squared_error: 0.0288357669597
…
Training Sets: ['D8-60MinuteRun-F2.csv', 'D7-60MinuteRun-F2.csv', 'D1-30MinuteRun-F2.csv', 'D3-30MinuteStillRun-F2.csv', 'D2-35MinuteRun-F2.csv', 'D4-18MinuteRun-F2.csv', 'D9-60-MinuteRun-F2.csv', 'D10-30MinuteRun-F2.csv', 'D11-30MinuteRun-F2.csv', 'D12-25MinuteRun-F2.csv']
Test Sets: ['D5-7MinuteRun-F2.csv']
Finished Training: False
_______
Saved to file: N/A
_________________________________________________________________//
_________________________________________________________________\\
Training session #: 111
Model Architecture:
_________________________________________________________________
Layer (type)                 Output Shape              Param #   
=================================================================
cu_dnnlstm_1 (CuDNNLSTM)     (None, 12, 8)             12160     
_________________________________________________________________
cu_dnnlstm_2 (CuDNNLSTM)     (None, 12, 8)             576       
_________________________________________________________________
cu_dnnlstm_3 (CuDNNLSTM)     (None, 12, 8)             576       
_________________________________________________________________
dense_1 (Dense)              (None, 12, 15)            135       
_________________________________________________________________
dense_2 (Dense)              (None, 12, 15)            240       
_________________________________________________________________
cu_dnnlstm_4 (CuDNNLSTM)     (None, 2)                 152       
_________________________________________________________________
activation_1 (Activation)    (None, 2)                 0         
=================================================================
Total params: 13,839
Trainable params: 13,839
Non-trainable params: 0
_________________________________________________________________
val_mean_absolute_error: 0.0769800218896
loss: 0.0514312682644
val_loss: 0.0780799287513
val_mean_squared_error: 0.0153372059195
mean_absolute_error: 0.0503309276728
mean_squared_error: 0.0273310925367
…
Training Sets: ['D8-60MinuteRun-F2.csv', 'D7-60MinuteRun-F2.csv', 'D1-30MinuteRun-F2.csv', 'D3-30MinuteStillRun-F2.csv', 'D2-35MinuteRun-F2.csv', 'D4-18MinuteRun-F2.csv', 'D9-60-MinuteRun-F2.csv', 'D10-30MinuteRun-F2.csv', 'D11-30MinuteRun-F2.csv', 'D12-25MinuteRun-F2.csv']
Test Sets: ['D5-7MinuteRun-F2.csv']
Finished Training: True
_______
Saved to file: N/A
_________________________________________________________________//
_________________________________________________________________\\
Training session #: 112
Model Architecture:
_________________________________________________________________
Layer (type)                 Output Shape              Param #   
=================================================================
cu_dnnlstm_5 (CuDNNLSTM)     (None, 12, 8)             12160     
_________________________________________________________________
cu_dnnlstm_6 (CuDNNLSTM)     (None, 12, 8)             576       
_________________________________________________________________
cu_dnnlstm_7 (CuDNNLSTM)     (None, 12, 8)             576       
_________________________________________________________________
dense_3 (Dense)              (None, 12, 15)            135       
_________________________________________________________________
dense_4 (Dense)              (None, 12, 15)            240       
_________________________________________________________________
cu_dnnlstm_8 (CuDNNLSTM)     (None, 8)                 800       
_________________________________________________________________
dense_5 (Dense)              (None, 2)                 18        
=================================================================
Total params: 14,505
Trainable params: 14,505
Non-trainable params: 0
_________________________________________________________________
val_mean_absolute_error: 0.0756777463989
loss: 0.0479405235785
val_loss: 0.076864676042
val_mean_squared_error: 0.0157622857967
mean_absolute_error: 0.0467531866032
mean_squared_error: 0.0267032406909
…
Training Sets: ['D8-60MinuteRun-F2.csv', 'D7-60MinuteRun-F2.csv', 'D1-30MinuteRun-F2.csv', 'D3-30MinuteStillRun-F2.csv', 'D2-35MinuteRun-F2.csv', 'D4-18MinuteRun-F2.csv', 'D9-60-MinuteRun-F2.csv', 'D10-30MinuteRun-F2.csv', 'D11-30MinuteRun-F2.csv', 'D12-25MinuteRun-F2.csv']
Test Sets: ['D5-7MinuteRun-F2.csv']
Finished Training: True
_______
Saved to file: N/A
_________________________________________________________________//
_________________________________________________________________\\
Training session #: 113
Model Architecture:
_________________________________________________________________
Layer (type)                 Output Shape              Param #   
=================================================================
cu_dnnlstm_1 (CuDNNLSTM)     (None, 12, 8)             12160     
_________________________________________________________________
cu_dnnlstm_2 (CuDNNLSTM)     (None, 12, 40)            8000      
_________________________________________________________________
cu_dnnlstm_3 (CuDNNLSTM)     (None, 12, 40)            13120     
_________________________________________________________________
dense_1 (Dense)              (None, 12, 15)            615       
_________________________________________________________________
dense_2 (Dense)              (None, 12, 15)            240       
_________________________________________________________________
cu_dnnlstm_4 (CuDNNLSTM)     (None, 8)                 800       
_________________________________________________________________
dense_3 (Dense)              (None, 2)                 18        
=================================================================
Total params: 34,953
Trainable params: 34,953
Non-trainable params: 0
_________________________________________________________________
val_mean_absolute_error: 0.0574882912682
val_loss: 0.0591049867184
val_mean_squared_error: 0.0124251750954
mean_squared_error: 0.0260231295758
loss: 0.0409766285742
mean_absolute_error: 0.0393597634004
…
Training Sets: ['D1-30MinuteRun-F2.csv', 'D3-30MinuteStillRun-F2.csv', 'D13-60MinuteStillRun-F2.csv', 'D2-35MinuteRun-F2.csv', 'D9-60-MinuteRun-F2.csv', 'D10-30MinuteRun-F2.csv', 'D11-30MinuteRun-F2.csv', 'D8-60MinuteRun-F2.csv', 'D7-60MinuteRun-F2.csv']
Test Sets: ['D12-25MinuteRun-F2.csv']
Finished Training: True
_______
Saved to file: N/A
_________________________________________________________________//
_________________________________________________________________\\
Training session #: 124
Model Architecture:
_________________________________________________________________
Layer (type)                 Output Shape              Param #   
=================================================================
cu_dnnlstm_1 (CuDNNLSTM)     (None, 7, 28)             44800     
_________________________________________________________________
activation_1 (Activation)    (None, 7, 28)             0         
_________________________________________________________________
dense_1 (Dense)              (None, 7, 250)            7250      
_________________________________________________________________
dropout_1 (Dropout)          (None, 7, 250)            0         
_________________________________________________________________
cu_dnnlstm_2 (CuDNNLSTM)     (None, 1)                 1012      
=================================================================
Total params: 53,062
Trainable params: 53,062
Non-trainable params: 0
_________________________________________________________________
_________________________________________________________________\\
Training session #: 125
Model Architecture:
_________________________________________________________________
Layer (type)                 Output Shape              Param #   
=================================================================
cu_dnnlstm_5 (CuDNNLSTM)     (None, 7, 13)             20020     
_________________________________________________________________
activation_3 (Activation)    (None, 7, 13)             0         
_________________________________________________________________
dense_3 (Dense)              (None, 7, 25)             350       
_________________________________________________________________
dropout_3 (Dropout)          (None, 7, 25)             0         
_________________________________________________________________
cu_dnnlstm_6 (CuDNNLSTM)     (None, 1)                 112       
=================================================================
Total params: 20,482
Trainable params: 20,482
Non-trainable params: 0
_________________________________________________________________
mean_squared_error: 0.00234374000186
mean_squared_error: 0.00413814054483
loss: 0.00128104130748
loss: 0.00231165792927
val_mean_absolute_error: 0.0698191787408
val_mean_absolute_error: 0.0652869612775
…
Training Sets: ['D1-30MinuteRun-F2.csv', 'D3-30MinuteStillRun-F2.csv', 'D13-60MinuteStillRun-F2.csv', 'D2-35MinuteRun-F2.csv', 'D9-60-MinuteRun-F2.csv', 'D10-30MinuteRun-F2.csv', 'D11-30MinuteRun-F2.csv', 'D4-18MinuteRun-F2.csv', 'D8-60MinuteRun-F2.csv', 'D7-60MinuteRun-F2.csv']
Test Sets: ['D12-25MinuteRun-F2.csv']
Finished Training: True
_______
Saved to file: N/A
_________________________________________________________________//
_________________________________________________________________\\
Training session #: 126
Model Architecture:
_________________________________________________________________
Layer (type)                 Output Shape              Param #   
=================================================================
cu_dnnlstm_1 (CuDNNLSTM)     (None, 20, 13)            20020     
_________________________________________________________________
activation_1 (Activation)    (None, 20, 13)            0         
_________________________________________________________________
dense_1 (Dense)              (None, 20, 25)            350       
_________________________________________________________________
dropout_1 (Dropout)          (None, 20, 25)            0         
_________________________________________________________________
cu_dnnlstm_2 (CuDNNLSTM)     (None, 1)                 112       
=================================================================
Total params: 20,482
Trainable params: 20,482
Non-trainable params: 0
_________________________________________________________________
_______
_______
Test X mae: 0.0429017850927
Test Y mae: 0.121577280617
Test X mse: 0.170957832465
Test Y mse: 0.412903398319
_______
Hyperparameters:

Loss: logcosh
Optimizer: rmsprop
Timesetps: 20
…
Training Sets: ['D1-30MinuteRun-F2.csv', 'D3-30MinuteStillRun-F2.csv', 'D13-60MinuteStillRun-F2.csv', 'D2-35MinuteRun-F2.csv', 'D9-60-MinuteRun-F2.csv', 'D10-30MinuteRun-F2.csv', 'D11-30MinuteRun-F2.csv', 'D4-18MinuteRun-F2.csv', 'D8-60MinuteRun-F2.csv', 'D7-60MinuteRun-F2.csv']
Test Sets: ['D12-25MinuteRun-F2.csv']
Finished Training: False
_______
Saved to file: N/A
_________________________________________________________________//
_________________________________________________________________\\
Training session #: 127
Model Architecture:
_________________________________________________________________
Layer (type)                 Output Shape              Param #   
=================================================================
cu_dnnlstm_1 (CuDNNLSTM)     (None, 15, 12)            18432     
_________________________________________________________________
activation_1 (Activation)    (None, 15, 12)            0         
_________________________________________________________________
dense_1 (Dense)              (None, 15, 25)            325       
_________________________________________________________________
dropout_1 (Dropout)          (None, 15, 25)            0         
_________________________________________________________________
cu_dnnlstm_2 (CuDNNLSTM)     (None, 1)                 112       
=================================================================
Total params: 18,869
Trainable params: 18,869
Non-trainable params: 0
_________________________________________________________________
_______
_______
Test X mae: 0.107567940825
Test Y mae: 0.132122820439
Test X mse: 0.383188411833
Test Y mse: 0.415236465177
_______
Hyperparameters:

Loss: logcosh
Optimizer: rmsprop
Timesetps: 15
…
Epochs: 150
Validation Split: 0.2
_______
Training Sets: ['D1-MegaSet-F3.csv']
Test Sets: ['D2-TestSet-F3.csv']
Finished Training: True
_______
Saved to file: M130-YpR0-MAE:0.134-MSE:0.085-F3.h5py
_________________________________________________________________//
_________________________________________________________________\\
Training session #: 131
Model Architecture:
_________________________________________________________________
Layer (type)                 Output Shape              Param #   
=================================================================
cu_dnnlstm_5 (CuDNNLSTM)     (None, 6, 26)             41392     
_________________________________________________________________
activation_3 (Activation)    (None, 6, 26)             0         
_________________________________________________________________
dense_3 (Dense)              (None, 6, 50)             1350      
_________________________________________________________________
cu_dnnlstm_6 (CuDNNLSTM)     (None, 2)                 432       
_________________________________________________________________
dense_4 (Dense)              (None, 2)                 6         
=================================================================
Total params: 43,180
Trainable params: 43,180
Non-trainable params: 0
_________________________________________________________________
mean_squared_error: 0.0672275045563
val_mean_absolute_error: 0.127634627696
val_loss: 0.130989006792
val_mean_squared_error: 0.115218939553
mean_absolute_error: 0.0678755699803
loss: 0.0712306297762
…
Epochs: 1500
Validation Split: 0.2
_______
Training Sets: ['D1-MegaSet-F3.csv']
Test Sets: ['D2-TestSet-F3.csv']
Finished Training: True
_______
Saved to file: M131-YpR0-MAE:0.128-MSE:0.115-F3.h5py
_________________________________________________________________//
_________________________________________________________________\\
Training session #: 132
Model Architecture:
_________________________________________________________________
Layer (type)                 Output Shape              Param #   
=================================================================
cu_dnnlstm_7 (CuDNNLSTM)     (None, 14, 27)            43092     
_________________________________________________________________
activation_4 (Activation)    (None, 14, 27)            0         
_________________________________________________________________
dense_5 (Dense)              (None, 14, 54)            1512      
_________________________________________________________________
cu_dnnlstm_8 (CuDNNLSTM)     (None, 2)                 464       
_________________________________________________________________
dense_6 (Dense)              (None, 2)                 6         
=================================================================
Total params: 45,074
Trainable params: 45,074
Non-trainable params: 0
_________________________________________________________________
mean_squared_error: 0.0673794566064
val_mean_absolute_error: 0.127374908163
val_loss: 0.130415368587
val_mean_squared_error: 0.123059513227
mean_absolute_error: 0.0675546472855
loss: 0.0705952065204
…
Epochs: 1500
Validation Split: 0.2
_______
Training Sets: ['D1-MegaSet-F3.csv']
Test Sets: ['D2-TestSet-F3.csv']
Finished Training: True
_______
Saved to file: M132-YpR0-MAE:0.127-MSE:0.123-F3.h5py
_________________________________________________________________//
_________________________________________________________________\\
Training session #: 133
Model Architecture:
_________________________________________________________________
Layer (type)                 Output Shape              Param #   
=================================================================
cu_dnnlstm_1 (CuDNNLSTM)     (None, 13, 25)            39700     
_________________________________________________________________
activation_1 (Activation)    (None, 13, 25)            0         
_________________________________________________________________
dense_1 (Dense)              (None, 13, 25)            650       
_________________________________________________________________
dropout_1 (Dropout)          (None, 13, 25)            0         
_________________________________________________________________
dense_2 (Dense)              (None, 13, 25)            650       
_________________________________________________________________
dropout_2 (Dropout)          (None, 13, 25)            0         
_________________________________________________________________
dense_3 (Dense)              (None, 13, 25)            650       
_________________________________________________________________
dropout_3 (Dropout)          (None, 13, 25)            0         
_________________________________________________________________
cu_dnnlstm_2 (CuDNNLSTM)     (None, 25)                5200      
_________________________________________________________________
dense_4 (Dense)              (None, 1)                 26        
=================================================================
Total params: 46,876
Trainable params: 46,876
Non-trainable params: 0
_________________________________________________________________
_______
_______
Test X mae: 1.68784186574
Test Y mae: 1.69370857055
Test X mse: 1.68049112219
Test Y mse: 1.692059579
_______
Hyperparameters:

Loss: mae
Optimizer: adam
Timesetps: 13
Batch size: 10000
…
Epochs: 2500
Validation Split: 0.2
_______
Training Sets: ['D1-MegaSetyes-F3.csv']
Test Sets: ['D2-TestSet-F3.csv']
Finished Training: False
_______
Saved to file: M133-YpR0-DuAL-MAE:x-MSE:x-F3.h5py
_________________________________________________________________//
_________________________________________________________________\\
Training session #: 134
Model Architecture:
_________________________________________________________________
Layer (type)                 Output Shape              Param #   
=================================================================
cu_dnnlstm_1 (CuDNNLSTM)     (None, 13, 25)            39700     
_________________________________________________________________
activation_1 (Activation)    (None, 13, 25)            0         
_________________________________________________________________
dense_1 (Dense)              (None, 13, 27)            702       
_________________________________________________________________
dropout_1 (Dropout)          (None, 13, 27)            0         
_________________________________________________________________
dense_2 (Dense)              (None, 13, 27)            756       
_________________________________________________________________
dropout_2 (Dropout)          (None, 13, 27)            0         
_________________________________________________________________
dense_3 (Dense)              (None, 13, 27)            756       
_________________________________________________________________
dropout_3 (Dropout)          (None, 13, 27)            0         
_________________________________________________________________
cu_dnnlstm_2 (CuDNNLSTM)     (None, 25)                5400      
_________________________________________________________________
dense_4 (Dense)              (None, 1)                 26        
=================================================================
Total params: 47,340
Trainable params: 47,340
Non-trainable params: 0
_________________________________________________________________
_______
_______
Test X mae: 0.0670051464515
Test Y mae: 0.373638020699
Test X mse: 0.0621550090922
Test Y mse: 0.362257699352
_______
Hyperparameters:

Loss: mae
Optimizer: adam
Timesetps: 13
…
Recurrent Regularizer: 0.0003
Epochs: 1000
Validation Split: 0.2
_______
Training Sets: ['D1-MegaSetyes-F3.csv']
Test Sets: ['D2-TestSet-F3.csv']
Finished Training: False
_______
Saved to file: N/A
_________________________________________________________________//
_________________________________________________________________\\
Training session #: 135
Model Architecture:
_________________________________________________________________
Layer (type)                 Output Shape              Param #   
=================================================================
cu_dnnlstm_4 (CuDNNLSTM)     (None, 7, 98)             184240    
_________________________________________________________________
activation_3 (Activation)    (None, 7, 98)             0         
_________________________________________________________________
dense_8 (Dense)              (None, 7, 27)             2673      
_________________________________________________________________
dropout_6 (Dropout)          (None, 7, 27)             0         
_________________________________________________________________
dense_9 (Dense)              (None, 7, 27)             756       
_________________________________________________________________
dropout_7 (Dropout)          (None, 7, 27)             0         
_________________________________________________________________
dense_10 (Dense)             (None, 7, 27)             756       
_________________________________________________________________
dropout_8 (Dropout)          (None, 7, 27)             0         
_________________________________________________________________
cu_dnnlstm_5 (CuDNNLSTM)     (None, 98)                49784     
_________________________________________________________________
dense_11 (Dense)             (None, 1)                 99        
=================================================================
Total params: 238,308
Trainable params: 238,308
Non-trainable params: 0
_________________________________________________________________
_______
_______
Test X mae: 0.0526527798041
Test Y mae: 0.233128661527
Test X mse: 0.0526527798041
Test Y mse: 0.233128661527
_______
Hyperparameters:

Loss: mae
Optimizer: adam
Timesetps: 7
…
Epochs: 1000
Validation Split: 0.2
_______
Training Sets: ['D1-MegaSetyes-F3.csv']
Test Sets: ['D2-TestSet-F3.csv']
Finished Training: False
_______
Saved to file: M135-YpR0-DuAL-MAE:x-MSE:x-F3.h5py
_________________________________________________________________//
_________________________________________________________________\\
Training session #: 136
Model Architecture:
_________________________________________________________________
Layer (type)                 Output Shape              Param #   
=================================================================
cu_dnnlstm_1 (CuDNNLSTM)     (None, 26, 48)            80640     
_________________________________________________________________
activation_1 (Activation)    (None, 26, 48)            0         
_________________________________________________________________
dense_1 (Dense)              (None, 26, 54)            2646      
_________________________________________________________________
cu_dnnlstm_2 (CuDNNLSTM)     (None, 2)                 464       
_________________________________________________________________
dense_2 (Dense)              (None, 2)                 6         
=================================================================
Total params: 83,756
Trainable params: 83,756
Non-trainable params: 0
_________________________________________________________________
loss: 0.00363018375462
val_mean_squared_error: 0.026326357514
mean_absolute_error: 0.0364231399152
val_loss: 0.026326357514
mean_squared_error: 0.00363018375462
val_mean_absolute_error: 0.0716410401067
…
Epochs: 500
Validation Split: 0.2
_______
Training Sets: ['D1-MegaSetyes-F3.csv']
Test Sets: ['D2-TestSet-F3.csv']
Finished Training: True
_______
Saved to file: M136-YpR0-MAE:0.072-MSE:0.026-F3.h5py
_________________________________________________________________//
_________________________________________________________________\\
Training session #: 137
Model Architecture:
_________________________________________________________________
Layer (type)                 Output Shape              Param #   
=================================================================
cu_dnnlstm_1 (CuDNNLSTM)     (None, 3, 3)              4500      
_________________________________________________________________
activation_1 (Activation)    (None, 3, 3)              0         
_________________________________________________________________
dense_1 (Dense)              (None, 3, 5)              20        
_________________________________________________________________
dropout_1 (Dropout)          (None, 3, 5)              0         
_________________________________________________________________
dense_2 (Dense)              (None, 3, 5)              30        
_________________________________________________________________
dropout_2 (Dropout)          (None, 3, 5)              0         
_________________________________________________________________
cu_dnnlstm_2 (CuDNNLSTM)     (None, 3)                 120       
_________________________________________________________________
dense_3 (Dense)              (None, 1)                 4         
=================================================================
Total params: 4,674
Trainable params: 4,674
Non-trainable params: 0
_________________________________________________________________
val_loss: 0.0198957992165
val_loss: 0.707775103819
val_mean_squared_error: 0.0184657049744
val_mean_squared_error: 0.704521584284
loss: 0.0747345004117
loss: 0.470016184888
mean_squared_error: 0.0733032975732
…
Recurrent Regularizer: 0.0001
Epochs: 150
Validation Split: 0.2
_______
Training Sets: ['D1-MegaSet-F3.csv']
Test Sets: ['D2-TestSet-F3.csv']
Finished Training: True
_______
Saved to file: N/A
_________________________________________________________________//
_________________________________________________________________\\
Training session #: 138
Model Architecture:
_________________________________________________________________
Layer (type)                 Output Shape              Param #   
=================================================================
cu_dnnlstm_5 (CuDNNLSTM)     (None, 3, 2)              2992      
_________________________________________________________________
activation_3 (Activation)    (None, 3, 2)              0         
_________________________________________________________________
dense_7 (Dense)              (None, 3, 5)              15        
_________________________________________________________________
dropout_5 (Dropout)          (None, 3, 5)              0         
_________________________________________________________________
dense_8 (Dense)              (None, 3, 5)              30        
_________________________________________________________________
dropout_6 (Dropout)          (None, 3, 5)              0         
_________________________________________________________________
cu_dnnlstm_6 (CuDNNLSTM)     (None, 2)                 72        
_________________________________________________________________
dense_9 (Dense)              (None, 1)                 3         
=================================================================
Total params: 3,112
Trainable params: 3,112
Non-trainable params: 0
_________________________________________________________________
val_loss: 0.107564074548
val_loss: 1.09578880814
val_mean_squared_error: 0.10706015453
val_mean_squared_error: 1.09273955372
loss: 0.1758075918
loss: 0.816104862058
mean_squared_error: 0.175302501902
…
Regularizer: 0.0
Recurrent Regularizer: 0.0
Epochs: 150
Validation Split: 0.2
_______
Training Sets: ['D1-MegaSet-F3.csv']
Test Sets: ['D2-TestSet-F3.csv']
Finished Training: False
_______
Saved to file: N/A
_________________________________________________________________//
_________________________________________________________________\\
Training session #: 155
Model Architecture:
_________________________________________________________________
Layer (type)                 Output Shape              Param #   
=================================================================
cu_dnnlstm_1 (CuDNNLSTM)     (None, 6, 48)             80640     
_________________________________________________________________
activation_1 (Activation)    (None, 6, 48)             0         
_________________________________________________________________
dense_1 (Dense)              (None, 6, 54)             2646      
_________________________________________________________________
cu_dnnlstm_2 (CuDNNLSTM)     (None, 2)                 464       
_________________________________________________________________
dense_2 (Dense)              (None, 2)                 6         
=================================================================
Total params: 83,756
Trainable params: 83,756
Non-trainable params: 0
_________________________________________________________________
_______
_______
Test mae: 0.0282065262927
Test mse: 0.0696420932565
_______
Hyperparameters:

Loss: mse
Optimizer: adam
Timesetps: 6
Batch size: 10000
Dropout: 0.0
Regularizer: 0.0
Recurrent Regularizer: 0.0
…
Training Sets: ['D1-30MinuteRun-F2.csv', 'D3-30MinuteStillRun-F2.csv', 'D13-60MinuteStillRun-F2.csv', 'D2-35MinuteRun-F2.csv', 'D9-60-MinuteRun-F2.csv', 'D10-30MinuteRun-F2.csv', 'D11-30MinuteRun-F2.csv', 'D12-25MinuteRun-F2.csv', 'D8-60MinuteRun-F2.csv', 'D7-60MinuteRun-F2.csv']
Test Sets: ['D4-18MinuteRun-F2.csv']
Finished Training: False
_______
Saved to file: M155-PoLR-MAE:x-MSE:x-F2.h5py
_________________________________________________________________//
_________________________________________________________________\\
Training session #: 156
Model Architecture:
_________________________________________________________________
Layer (type)                 Output Shape              Param #   
=================================================================
cu_dnnlstm_1 (CuDNNLSTM)     (None, 13, 48)            80640     
_________________________________________________________________
activation_1 (Activation)    (None, 13, 48)            0         
_________________________________________________________________
dense_1 (Dense)              (None, 13, 54)            2646      
_________________________________________________________________
cu_dnnlstm_2 (CuDNNLSTM)     (None, 5)                 1220      
_________________________________________________________________
dense_2 (Dense)              (None, 2)                 12        
=================================================================
Total params: 84,518
Trainable params: 84,518
Non-trainable params: 0
_________________________________________________________________
_______
_______
Test mae: 0.185556963792
Test mse: 0.32440424873
_______
Hyperparameters:

Loss: mse
Optimizer: adam
Timesetps: 13
Batch size: 10000
Dropout: 0.0
Regularizer: 1e-05
Recurrent Regularizer: 1e-05
…
