_________________________________________________________________\\
Training session #: 1
Model Architecture:
_________________________________________________________________
Layer (type)                 Output Shape              Param #   
=================================================================
cu_dnnlstm_4 (CuDNNLSTM)     (None, 39, 41)            67732     
_________________________________________________________________
cu_dnnlstm_5 (CuDNNLSTM)     (None, 39, 41)            13776     
_________________________________________________________________
activation_3 (Activation)    (None, 39, 41)            0         
_________________________________________________________________
dense_2 (Dense)              (None, 39, 41)            1722      
_________________________________________________________________
cu_dnnlstm_6 (CuDNNLSTM)     (None, 2)                 360       
_________________________________________________________________
activation_4 (Activation)    (None, 2)                 0         
=================================================================
Total params: 83,590
Trainable params: 83,590
Non-trainable params: 0
_________________________________________________________________
Train mae: 0.0186292127146
Train mse: 0.0552285263044
Train logcosh: 0.0178980235611
Train acc: 0.00783598587414
Test mae: 0.0186292127146
Test mse: 0.0552285263044
Test logcosh: 0.0178980235611
…
