_________________________________________________________________\\
Training session #: 1
Model Architecture:
_________________________________________________________________
Layer (type)                 Output Shape              Param #   
=================================================================
cu_dnnlstm_1 (CuDNNLSTM)     (None, 40, 40)            65920     
_________________________________________________________________
cu_dnnlstm_2 (CuDNNLSTM)     (None, 40, 40)            13120     
_________________________________________________________________
activation_1 (Activation)    (None, 40, 40)            0         
_________________________________________________________________
dense_1 (Dense)              (None, 40, 40)            1640      
_________________________________________________________________
cu_dnnlstm_3 (CuDNNLSTM)     (None, 2)                 352       
_________________________________________________________________
activation_2 (Activation)    (None, 2)                 0         
=================================================================
Total params: 81,032
Trainable params: 81,032
Non-trainable params: 0
_________________________________________________________________
val_mean_absolute_error: 0.290938347578
val_logcosh: 0.0642714351416
mean_absolute_error: 0.283446117201
logcosh: 0.084649838236
val_mean_squared_error: 0.137071982026
acc: 0.718775837688
mean_squared_error: 0.19669348979
…
